# 5.3 PyTorch修改模型

除了自己构建PyTorch模型外，还有另一种应用场景：我们已经有一个现成的模型，但该模型中的部分结构不符合我们的要求，为了使用模型，我们需要对模型结构进行必要的修改。随着深度学习的发展和PyTorch越来越广泛的使用，有越来越多的开源模型可以供我们使用，很多时候我们也不必从头开始构建模型。因此，掌握如何修改PyTorch模型就显得尤为重要。

本节我们就来探索这一问题。经过本节的学习，你将收获：

- 如何在已有模型的基础上：
  - 修改模型若干层
  - 添加额外输入
  - 添加额外输出



## 5.3.1 修改模型层

我们这里以PyTorch官方视觉库torchvision预定义好的模型ResNet50为例，探索如何修改模型的某一层或者某几层。我们先看看模型的定义是怎样的：

```python
import torchvision.models as models
net = models.resnet50()
print(net)
```

```
ResNet(
  (conv1): Conv2d(3, 64, kernel_size=(7, 7), stride=(2, 2), padding=(3, 3), bias=False)
  (bn1): BatchNorm2d(64, eps=1e-05, momentum=0.1, affine=True, track_running_stats=True)
  (relu): ReLU(inplace=True)
  (maxpool): MaxPool2d(kernel_size=3, stride=2, padding=1, dilation=1, ceil_mode=False)
  (layer1): Sequential(
    (0): Bottleneck(
      (conv1): Conv2d(64, 64, kernel_size=(1, 1), stride=(1, 1), bias=False)
      (bn1): BatchNorm2d(64, eps=1e-05, momentum=0.1, affine=True, track_running_stats=True)
      (conv2): Conv2d(64, 64, kernel_size=(3, 3), stride=(1, 1), padding=(1, 1), bias=False)
      (bn2): BatchNorm2d(64, eps=1e-05, momentum=0.1, affine=True, track_running_stats=True)
      (conv3): Conv2d(64, 256, kernel_size=(1, 1), stride=(1, 1), bias=False)
      (bn3): BatchNorm2d(256, eps=1e-05, momentum=0.1, affine=True, track_running_stats=True)
      (relu): ReLU(inplace=True)
      (downsample): Sequential(
        (0): Conv2d(64, 256, kernel_size=(1, 1), stride=(1, 1), bias=False)
        (1): BatchNorm2d(256, eps=1e-05, momentum=0.1, affine=True, track_running_stats=True)
      )
    )
..............
  (avgpool): AdaptiveAvgPool2d(output_size=(1, 1))
  (fc): Linear(in_features=2048, out_features=1000, bias=True)
)

```

这里模型结构是为了适配ImageNet预训练的权重，因此最后全连接层（fc）的输出节点数是1000。

假设我们要用这个resnet模型去做一个10分类的问题，就应该修改模型的fc层，将其输出节点数替换为10。另外，我们觉得一层全连接层可能太少了，想再加一层。可以做如下修改：

```python
from collections import OrderedDict
classifier = nn.Sequential(OrderedDict([('fc1', nn.Linear(2048, 128)),
                          ('relu1', nn.ReLU()), 
                          ('dropout1',nn.Dropout(0.5)),
…
